myCode/task_4/pytorch/model_task_4.pt (torch_old, 2514 bytes, 4 tensors)

fc1.weight f4 [20, 10]
-0.096503586 0.060938418 0.05833772 -0.28413734 0.057789892 -0.095054656 0.22455749 0.0654484
-0.27237633 -0.07846962 0.22252235 0.25955543 0.26417342 -0.09110586 0.2486358 -0.09457469
-0.23673803 0.051039338 0.24080327 0.2042034 -0.10990377 -0.24669056 0.01851654 0.04564649
0.038635194 0.12892714 0.0011515021 -0.20828328 -0.055423945 0.25440916 0.011067659 -0.27246612
-0.121166766 0.27451208 -0.07900141 -0.17205335 0.058941662 -0.23249051 -0.21239556 -0.07999131
0.097961426 -0.29361174 0.04044652 -0.03653735 -0.24680918 0.041692376 0.12837517 -0.2538712
0.15762585 -0.28656155 0.07388556 -0.06347805 -0.00015723705 -0.16526163 -0.04237488 -0.2852964
-0.11295766 0.17362812 0.21183577 0.16660434 -0.24571085 0.06565377 0.266435 0.15238604
-0.26299196 0.1291677 -0.08248554 0.30987146 0.22093478 -0.30467823 0.00090530515 0.23140565
-0.021051645 -0.13207573 -0.021109194 0.09413031 -0.14130707 -0.036058635 0.21542099 -0.07985635
-0.046020627 -0.27361327 0.209434 0.238049 -0.22109982 -0.27544495 0.092992425 0.013003379
0.267993 0.2861171 -0.0038914979 0.16717687 -0.14966442 -0.1575523 -0.17778791 -0.07361436
0.27990702 -0.11775249 0.2859508 -0.017217696 0.019832134 -0.2958399 -0.102615565 0.13649908
-0.11722903 -0.24636984 0.22231027 -0.07215822 0.0045255125 0.13615027 -0.15876348 -0.100810796
-0.0342606 0.052506328 -0.24381098 -0.0682572 -0.11459331 -0.15731364 -0.056565225 0.27834472
0.30919877 0.2124413 0.22819653 -0.05719927 0.11778864 -0.27761182 -0.22555012 -0.062342465
0.16710114 0.010912448 -0.15729834 0.20362154 -0.17196168 -0.09936945 0.26487634 -0.09197256
0.26428035 -0.28022704 -0.24567798 -0.24466583 -0.12827331 0.063393 0.25623187 0.07253012
0.25166002 0.10399595 -0.30403838 -0.20391789 -0.24216168 0.058493793 0.2330384 -0.004835427
-0.04617715 -0.034271926 -0.1615927 0.27886012 -0.27106094 0.1971955 -0.14247328 -0.25267267
0.034867942 -0.264352 -0.29437205 -0.13171855 -0.08311957 0.23370442 -0.3129106 -0.009097338
0.22123232 0.0047263205 -0.2420328 0.23309687 -0.28034198 0.13075858 -0.2811839 0.06446874
0.2942089 -0.23422784 -0.2807168 -0.053994387 -0.11098753 -0.1411063 0.30956283 0.011809468
-0.15907052 -0.30135947 -0.07000631 0.11300138 -0.14344633 -0.26205882 -0.15734373 -0.21341652
0.20491573 0.28773215 -0.11596824 -0.24180472 0.2686927 -0.02878189 -0.1311308 0.2877045
00000000: aca3 c5bd 909a 793d 88f3 6e3d 737a 91be
00000010: 18b5 6c3d 04ac c2bd 66f2 653e d009 863d
00000020: e974 8bbe aeb4 a0bd e6dc 633e 73e4 843e
00000030: bd41 873e b695 babd 629a 7e3e 60b0 c1bd
00000040: 746b 72be a00e 513d 2295 763e b21a 513e
00000050: 3a15 e1bd 739c 7cbe 00b0 973c d0f7 3a3d
00000060: f03f 1e3d 7a05 043e 00ee 963a 3648 55be
00000070: 3804 63bd eb41 823e 2055 353c ae80 8bbe
00000080: 4826 f8bd d98c 8c3e 7ecb a1bd c12e 30be
00000090: d06c 713d fe11 6ebe 397e 59be 7cd2 a3bd
000000a0: 00a0 c83d 4754 96be 40ab 253d 30a8 15bd
000000b0: 8cbb 7cbe a0c5 2a3d c874 033e 68fb 81be
000000c0: ac68 213e 32b8 92be 5051 973d c800 82bd
000000d0: 00e0 24b9 583a 29be 4891 2dbd 5f12 92be
000000e0: 5856 e7bd 92cb 313e 7aeb 583e 549a 2a3e
000000f0: a09b 7bbe 7c75 863d 2b6a 883e 160b 1c3e
00000100: e2a6 86be 8a44 043e 2eee a8bd 79a7 9e3e
00000110: ba3c 623e c9fe 9bbe 0052 6d3a 9af5 6c3e
00000120: 8074 acbc dc3e 07be 30ed acbc 64c7 c03d
00000130: cdb2 10be 38b2 13bd 5297 5c3e ba8b a3bd
00000140: 2080 3cbd 0a17 8cbe de75 563e 1ec3 733e
00000150: fe67 62be 1f07 8dbe d072 be3d 200c 553c
00000160: 6136 893e f17d 923e 8008 7fbb 6a30 2b3e
00000170: a141 19be 6455 21be 090e 36be 20c3 96bd
00000180: f94f 8f3e 3828 f1bd 2568 923e 200c 8dbc
00000190: 0077 a23c 5478 97be 1c28 d2bd 6ac6 0b3e
000001a0: c615 f0bd 6048 7cbe 4ea5 633e b0c7 93bd
000001b0: c04a 943b fa6a 0b3e e592 22be e475 cebd
000001c0: d854 0cbd e010 573d 96a9 79be 6eca 8bbd
000001d0: e6af eabd d416 21be f0b0 67bd 3383 8e3e
000001e0: 4d4f 9e3e 368a 593e 5aac 693e c849 6abd
000001f0: 2c3b f13d 2323 8ebe 9cf6 66be d05a 7fbd
00000200: 901c 2b3e 20ca 323c d112 21be 2a82 503e
00000210: b916 30be 3682 cbbd df9d 873e 1c5c bcbd
00000220: c14f 873e eb79 8fbe 0293 7bbe ae89 7abe
00000230: 145a 03be 30d4 813d d330 833e ac8a 943d
00000240: 95d9 803e d4fb d43d ebaa 9bbe dacf 50be
00000250: 3bf9 77be 3097 6f3d 9ea1 6e3e 8072 9ebb
00000260: 4024 3dbd b860 0cbd 8f78 25be c1c6 8e3e
00000270: 80c8 8abe 9eed 493e 84e4 11be 505e 81be
00000280: b0d1 0e3d 2559 87be efb7 96be 3ae1 06be
00000290: 983a aabd 3650 6f3e d135 a0be 000d 15bc
000002a0: ba8a 623e 40df 9a3b 72d7 77be f2b0 6e3e
000002b0: fc88 8fbe 94e5 053e 56f7 8fbe 3008 843d
000002c0: 8da2 963e 6cd9 6fbe 1dba 8fbe 3829 5dbd
000002d0: 6e4d e3bd 2b7e 10be 057f 9e3e 807c 413c
000002e0: 62e3 22be ca4b 9abe 785f 8fbd 446d e73d
000002f0: 98e3 12be 932c 86be b71e 21be dc89 5abe
00000300: 6ed5 513e a151 933e c280 edbd a89b 77be
00000310: 1792 893e 00c8 ebbc 2747 06be 014e 933e

fc1.bias f4 [20]
0.15478632 0.027704716 -0.055566996 -0.19562855 0.042268097 0.036064386 -0.30458564 0.2516637
-0.2589661 0.07316437 0.25324056 0.14055938 0.23578522 -0.051520586 0.037687838 0.20502588
0.08858752 0.08275622 -0.16170447 0.27049497
00000000: 4e80 1e3e 00f5 e23c 389a 63bd da52 48be
00000010: 5021 2d3d 40b8 133d a6f2 9bbe 11da 803e
00000020: 3497 84be 34d7 953d bfa8 813e ccee 0f3e
00000030: ae71 713e 4007 53bd 905e 1a3d 4ef2 513e
00000040: 606d b53d 187c a93d db95 25be 517e 8a3e

fc2.weight f4 [10, 20]
0.08608201 0.008468747 -0.20169547 -0.15693694 -0.046562582 0.008735016 -0.15105256 -0.06543304
-0.08878407 0.20249572 -0.02249135 -0.10951879 0.18322074 0.003701955 -0.063856736 0.17508352
0.15932491 -0.1580168 -0.09812698 0.00979507 -0.005358979 0.123301625 -0.09038609 -0.008692041
-0.17963955 0.027486771 0.07349819 0.03698203 -0.10677634 0.17848659 0.19507584 -0.21793647
-0.01743327 0.0021516234 0.020930514 -0.046476483 0.13661882 -0.047278136 0.20887071 0.13008234
-0.041670933 0.05597663 0.18488139 -0.029632732 0.182812 -0.05701603 -0.08426857 -0.14310381
0.049992234 -0.1107005 -0.15130946 0.043895602 -0.14791551 0.021818906 0.076150686 0.080061376
-0.079735935 0.17647353 -0.11883962 0.04807359 -0.039139196 0.20850605 -0.05907704 0.07959196
-0.17577195 0.18558204 0.1154823 0.07197857 0.074620575 -0.114415176 -0.1818795 0.20103785
-0.17199615 0.08011994 -0.0049165934 0.12619323 -0.1122432 -0.19010057 0.05248609 0.101522654
0.1892083 0.096319914 0.11006424 -0.07216178 0.18622583 -0.09311804 0.16932935 -0.047308654
0.20495296 -0.065354824 0.11456692 -0.097698614 0.083713055 -0.13150859 -0.0021829903 -0.0997487
-0.03660381 -0.048008636 0.18646342 0.14134562 0.050079405 0.017039612 0.05790943 0.19130313
-0.053836465 0.082714915 0.16485694 0.14665398 -0.16346772 -0.16598634 -0.19144681 -0.0037344247
0.19988403 -0.21640298 0.017583102 -0.032220423 -0.09130341 -0.15642363 0.03865388 0.009030923
-0.043701157 0.057247758 -0.17692994 0.15577424 0.0832361 0.20211485 0.21952575 0.16996846
-0.1313535 -0.08127336 -0.07565047 -0.14108396 -0.17755547 0.17545539 0.208568 0.19193172
-0.103943765 -0.032922164 0.009159878 0.087055296 0.08386618 0.13249531 -0.0781073 -0.17700417
0.061522454 0.1054233 -0.18610162 -0.2216993 0.06502855 -0.13427396 0.07004461 -0.11768838
0.031567782 -0.18843234 -0.06608835 -0.047914788 -0.068418935 -0.01085414 0.22035316 -0.17673938
-0.0035064965 -0.07264404 -0.001427725 -0.09941176 0.076040685 0.22101885 -0.12389342 0.06138599
-0.10162205 -0.09882059 0.0055324286 0.22010821 0.1980179 -0.06951794 0.058662713 -0.20235817
-0.043167144 0.15622091 -0.009809703 -0.11151149 -0.043590084 -0.12769863 0.13304639 -0.145207
0.034106016 0.13270405 -0.13340855 -0.15905295 -0.063089445 0.064943284 -0.2080983 -0.07937679
-0.004950762 -0.033803552 0.03327298 0.21102995 -0.08709797 -0.06955971 0.19682404 0.21327236
00000000: c44b b03d 80c0 0a3c 4289 4ebe 14b4 20be
00000010: 68b8 3ebd 501d 0f3c 86ad 1abe c201 86bd
00000020: 6cd4 b5bd 0a5b 4f3e c83f b8bc 634b e0bd
00000030: 389e 3b3e 809c 723b 52c7 82bd 1849 333e
00000040: 1226 233e 28cf 21be ccf6 c8bd 807b 203c
00000050: 609a afbb 9085 fc3d 581c b9bd 1069 0ebc
00000060: 6ef3 37be f02b e13c 3886 963d 787a 173d
00000070: 8ead dabd 30c5 363e f6c1 473e bd2a 5fbe
00000080: 38d0 8ebc 4002 0d3b 7876 ab3c 205e 3ebd
00000090: cee5 0b3e b8a6 41bd 34e2 553e 4e34 053e
000000a0: 24af 2abd c047 653d 8c51 3d3e 58c0 f2bc
000000b0: 1233 3b3e a489 69bd 0095 acbd ce89 12be
000000c0: a8c4 4c3d f2b6 e2bd def0 1abe e0cb 333d
000000d0: 2a77 17be 90bd b23c e4f4 9b3d 38f7 a33d
000000e0: 984c a3bd 7ab5 343e 3062 f3bd d0e8 443d
000000f0: 6c50 20bd 9c82 553e c4fa 71bd 1c01 a33d
00000100: 90fd 33be 3809 3e3e fc81 ec3d 8069 933d
00000110: acd2 983d 8152 eabd 9f3e 3abe dedc 4d3e
00000120: c21f 30be ec15 a43d 601b a1bb cc38 013e
00000130: c3df e5bd b9a9 42be a8fb 563d 1ceb cf3d
00000140: d2bf 413e 6043 c53d 5c69 e13d 8ec9 93bd
00000150: fcb1 3e3e acb4 bebd ac64 2d3e b8c6 41bd
00000160: 30df 513e c0d8 85bd 10a2 ea3d 3616 c8bd
00000170: c071 ab3d 30aa 06be 8010 0fbb 0c49 ccbd
00000180: e0ed 15bd b4a4 44bd 44f0 3e3e e8bc 103e
00000190: 1020 4d3d a896 8b3c 7032 6d3d f8e4 433e
000001a0: a083 5cbd 7066 a93d 42d0 283e 762c 163e
000001b0: 1564 27be 53f8 29be a20a 44be 40bd 74bb
000001c0: 66ae 4c3e be98 5dbe 700a 903c 90f9 03bd
000001d0: 48fd babd 842d 20be 8853 1e3d 70f6 133c
000001e0: fcff 32bd a07c 6a3d 1f2d 35be 4883 1f3e
000001f0: b077 aa3d 32f7 4e3e 5ccb 603e 360c 2e3e
00000200: 8881 06be a672 a6bd a2ee 9abd 5078 10be
00000210: 1ad1 35be 94aa 333e da92 553e c089 443e
00000220: 78e0 d4bd 64d9 06bd 5013 163c 0c4a b23d
00000230: 08c2 ab3d daac 073e b8f6 9fbd 9540 35be
00000240: f8fe 7b3d 2ce8 d73d 6c91 3ebe 2405 63be
00000250: b02d 853d 1d7f 09be 8c73 8f3d 9b06 f1bd
00000260: 384d 013d 68f4 40be 5459 87bd 4c42 44bd
00000270: 3a1f 8cbd 90d5 31bc 42a4 613e 2bfb 34be
00000280: 40cd 65bb 66c6 94bd 8022 bbba 6598 cbbd
00000290: 38bb 9b3d c452 623e d5bb fdbd e06f 7b3d
000002a0: 391f d0bd 7362 cabd 6049 b53b 0c64 613e
000002b0: 34c5 4a3e 6c5f 8ebd 5048 703d fb36 4fbe
000002c0: 08d0 30bd 60f8 1f3e e0b8 20bc 2360 e4bd
000002d0: 848b 32bd 6ec3 02be 503d 083e 25b1 14be
000002e0: c0b2 0b3d 92e3 073e 409c 08be c7de 22be
000002f0: 0a35 81bd fc00 853d b917 55be 4c90 a2bd
00000300: 003a a2bb 9875 0abd 4049 083d 3c18 583e
00000310: 6c60 b2bd 5275 8ebd 3e8c 493e 1264 5a3e

fc2.bias f4 [10]
-0.1779149 -0.12156606 -0.054701865 0.19043225 0.05544597 -0.15657812 -0.15447336 -0.07478985
-0.19056803 0.13539016
00000000: 532f 36be a0f7 f8bd 100f 60bd ac00 433e
00000010: 501b 633d 0456 20be 442e 1ebe 6c2b 99bd
00000020: 4424 43be b8a3 0a3e
